DataBase/models/audio/knn_model.npz (npz, 922 bytes, 1 tensors)

X f4 [3, 20]
0	0xbf032257	-0.51224273
1	0xbf505369	-0.81377274
2	0x3f1db0d4	0.61597943
3	0x3f90822a	1.1289723
4	0xbde95d49	-0.11394746
5	0xbf57147f	-0.8401565
6	0xbf531133	-0.8244812
7	0x3f268d40	0.6505928
8	0x3f3e45e8	0.7432542
9	0x3f0b0c28	0.54315424
10	0xbf2a5ed8	-0.6655097
11	0x3e6dbbb3	0.23216133
12	0x3deef8f8	0.11668581
13	0x3e5fefe7	0.21868859
14	0x3f5f15f5	0.8714288
15	0x3e64f63b	0.22359554
16	0x3f2dcd47	0.67891353
17	0x3d8a66e5	0.06757907
18	0x3e940775	0.2891194
19	0x3f219c1b	0.63128823
20	0xbfba8415	-1.4571558
21	0xbea3abf2	-0.3196712
22	0xbef0d4af	-0.47037265
23	0xbf238d80	-0.63887787
24	0xbe8cdf72	-0.27514225
25	0x3fbf5a3d	1.4949414
26	0xbf5da71c	-0.86583114
27	0x3f77e117	0.96827835
28	0xbfd76847	-1.6828698
29	0xbeab760d	-0.33488503
30	0x3e26a8bd	0.16275306
31	0x3f1612ab	0.58622235
32	0x3f3612f2	0.7112266
33	0x3f4b18ce	0.79334724
34	0xbeb28c18	-0.34872508
35	0xbeecb960	-0.4623518
36	0x3f5ba44f	0.8579759
37	0xbe43e548	-0.19130433
38	0xbfa349b0	-1.2756863
39	0xbf910f8e	-1.1332872
40	0xbf6b613a	-0.9194523
41	0x3efe8bda	0.49716073
42	0x3e11d80d	0.14242573
43	0x3f30c3a6	0.69048536
44	0xbedac0dc	-0.42725265
45	0x3e22583b	0.1585397
46	0x3f2026b1	0.6255904
47	0xbe9e62ab	-0.30934653
48	0x3ee9de72	0.45677525
49	0xbf2973fa	-0.6619259
50	0xbeb9e232	-0.36305386
51	0xbec37326	-0.3817379
52	0xbf991146	-1.1958396
53	0x3ef95475	0.48697248
54	0xbef05581	-0.46940234
55	0x3c4cb422	0.012494119
56	0x3ef6246d	0.48074666
57	0x3ee49fbc	0.44653118
58	0x3f2a56ae	0.6653851
59	0xbdc9b2c2	-0.098485485
